checkpoints/model_best_2842.pth.tar (torch, 47863 bytes, 48 tensors)

module.ANet.block.0.weight f4 [3, 3, 3, 3]
00000000: 8043 9f3f 1239 773f 6c4d 643f 4476 803e
00000010: bd81 e0be cb16 d7bc 0477 01bf a113 22bf
00000020: 6b3a f5be 5669 953e b595 a0bc b22b a4be
00000030: a5a2 33bf b5f9 3dbf 24df 52bf d96b 24bf
00000040: 94b0 73bf 4720 6bbf a799 db3e 3342 18be
00000050: 9cbf adbe 480f 12bf 4844 89bf 89b2 7cbf
00000060: b774 51bf 9360 72bf e57c 95bf f15f a73f
00000070: 791d a83f 8097 af3f 98bb 3e3f 57a0 723f
00000080: 3838 7b3f f903 dabe 8a9a c4be 6934 bcbe
00000090: f108 4a3f f25a 163f 6c88 123f 4995 033f
000000a0: b56f 1f3f d7c0 803e 3b3e 7ebf 2bcb 4fbf
000000b0: 5bdd 4abf 46d2 183f 8c11 ac3e a07e e03e
000000c0: 31e3 3f3c 90d1 643d f0fe 603e c50e a1bf
000000d0: 5aaf 86bf 7fb3 81bf 4d74 aa3e 544c c03e
000000e0: 5c5e 0b3f 4512 47bf c87c 66bf b655 e8be
000000f0: 0b4f e3be 2b10 32bf 8118 cfbd 98d2 86be
00000100: c10f 89be 98c4 e23a 5fb4 6ebf 45b0 32bf
00000110: 7ab9 52bf 249c 44bf 16fc 77bf 2b55 3fbf
00000120: ac68 e43e fbed 2f3f f1d1 e93e cd28 453e
00000130: 41ff a9be 521a 00be ba90 d03d 7935 7dba
00000140: b065 563e
1.2442474 0.9657146 0.89180636 0.2509023 -0.43848982 -0.026255986 -0.5057223 -0.633112
-0.47896132 0.29181927 -0.019602636 -0.32064587 -0.7017005 -0.7420915 -0.82371736 -0.6422706
-0.9519131 -0.91846126 0.42890665 -0.14869003 -0.3393525 -0.5705457 -1.0723963 -0.98709923
-0.8181872 -0.9467861 -1.167874 1.3076154 1.3133994 1.3718109 0.74504995 0.9477591
0.9813266 -0.42581156 -0.38399154 -0.36758736 0.78919894 0.5873252 0.57239413 0.51399666
0.62279826 0.25147125 -0.99313706 -0.81169385 -0.7924401 0.5969585 0.33607137 0.43846607
0.0117118815 0.055863917 0.21972251 -1.2582632 -1.0522263 -1.0132903 0.33291855 0.37558234
0.54440856 -0.7776225 -0.9003415 -0.45377892 -0.44396242 -0.6955592 -0.101120956 -0.26332545
-0.26769832 0.0017301021 -0.93243974 -0.69800216 -0.82314265 -0.7680075 -0.9686903 -0.7473933
0.44611108 0.68722504 0.45667985 0.19253846 -0.33202556 -0.1251004 0.101838544 -0.0009659152
0.20937228

module.ANet.block.0.bias f4 [3]
00000000: bf79 1e40 7396 4cc0 4a34 b63f
2.4761808 -3.1966827 1.4234707

module.ANet.block.2.weight f4 [3, 3, 3, 3]
00000000: 23f3 23bf fccc 6cbf 8911 6abf 39b7 bfbe
00000010: dc23 36bf bb16 05bf d58d 99bc dd24 a2bd
00000020: 1827 cfbe 5a52 dfbe 90ba 0bbf e9d3 2ebf
00000030: 7e68 4f3f 7d97 583f 125d 493f 07ba 653f
00000040: a34b 8a3f 0426 813f 17d3 f73d bc5f 32be
00000050: 25de acbd c79b 2d3e 4bfc f63c ca8e afbe
00000060: c556 a63e f278 0e3d 188c 083e eaf7 e6be
00000070: c21e 333c 5985 17be 7cb8 2d3e 971e 083e
00000080: 6297 453e ac03 21bd b8a2 cc3e 1da9 aa3d
00000090: 64d5 ebbd 2791 40be 89ba c1bc b9c5 4c3f
000000a0: 28c7 3b3f 09da 253f df04 2b3f e7db 623f
000000b0: 7724 493f 5e1e dabd d8e3 193e 1711 40be
000000c0: b847 b8be 5864 953d 2331 a8be 0f17 3ebf
000000d0: 459b 4bbe d6b6 dfbe 5e58 54bf 9b2b 0fbf
000000e0: 074c bebe 7235 303f 8d6b 783f da13 803f
000000f0: 2fa5 ea3e 1861 2d3f 1d93 513f b8a6 2b3f
00000100: afc1 353e ede1 153f f907 29bc 7476 c9be
00000110: 3fce 00bb 333f c03d 51db 0f3e 055c b83d
00000120: 048f 38bf 6a01 90be 5347 febd 8863 48be
00000130: 045c c53e 410b 233e 6e1c 603e 5331 113f
00000140: ef2c 9d3e
-0.6404287 -0.9250028 -0.91433007 -0.37444475 -0.7114847 -0.5198781 -0.018744389 -0.07917187
-0.40459514 -0.43617517 -0.54581547 -0.682921 0.8101882 0.8460615 0.7865764 0.8973698
1.0804332 1.0089726 0.12100809 -0.17419332 -0.08440808 0.16953956 0.0301496 -0.34288627
0.32488075 0.03478331 0.13334692 -0.45111018 0.010932626 -0.14796962 0.16964906 0.13292919
0.19296029 -0.039310142 0.39967895 0.08333037 -0.115153104 -0.18805371 -0.023648517 0.799892
0.73350763 0.6478582 0.6680431 0.88616794 0.78571266 -0.10650323 0.15028322 -0.1875652
-0.35992217 0.0729453 -0.32849988 -0.74253935 -0.1988345 -0.4369418 -0.8294734 -0.5592591
-0.3716738 0.6883155 0.9703911 1.0006058 0.4582915 0.6772628 0.818651 0.6705127
0.17749666 0.5854786 -0.010316842 -0.39348185 -0.0019654182 0.09387054 0.14048506 0.09001926
-0.72093225 -0.2812608 -0.12415948 -0.19569218 0.38546765 0.15922262 0.21885845 0.5671589
0.30698344

module.ANet.block.2.bias f4 [3]
00000000: f2de 9cbe e5fd c33f cfb4 043f
-0.30638844 1.5311857 0.5183839

module.ANet.block.5.weight f4 [3, 3, 1, 1]
00000000: 69ed 833f 3d2e 9bbf 0229 2e3d bcc2 763e
00000010: 26e1 05bd dc54 ccbf 70df f73e 1132 943e
00000020: 68c1 2d3c
1.0306827 -1.2123486 0.042519577 0.24097723 -0.03268542 -1.5963397 0.48412657 0.28944448
0.010605194

module.ANet.block.5.bias f4 [3]
00000000: 3945 5fbf 4dd9 1c3e d09b c83d
-0.87215 0.15317269 0.09795344

module.ANet.block.7.weight f4 [3, 3, 1, 1]
00000000: 670a 88bf 2233 2c3f d7fd 21be 586d 33bf
00000010: 2e99 c7ba 29b2 96bd 5260 643e 21e3 d7bd
00000020: c246 8dbf
-1.0628175 0.6726552 -0.15819488 -0.7008872 -0.0015228146 -0.073582 0.22302368 -0.10541368
-1.1037219

module.ANet.block.7.bias f4 [3]
00000000: d99e 6c3f c5ea 02bd 24ce 7cbd
0.9242988 -0.031962175 -0.06172003

module.tNet.block.0.weight f4 [8, 6, 3, 3]
00000000: 1f9f 1ebe 0be4 08bc 3ce9 abbd 0bb7 8abb
00000010: c1a1 093e 0837 f93d 1404 373d e970 8abd
00000020: 6fca 28be bb11 2940 55ec 2540 dbcc 2b40
00000030: 8b6b 3e40 d514 3e40 a25d 3940 c4dc 2f40
00000040: 1ee2 3340 8a69 3240 e326 c83e 1dbb d33e
00000050: 49dc 033f 1961 d33e f71f b43e e4df 043f
00000060: 53b5 cc3e 6948 c83e b1eb 043f 5660 3dbf
00000070: 3aa2 18bf 8284 9dbe 58f0 22bf 5815 9bbe
00000080: 1b43 8abe 8a45 d5be 1ee4 afbd 6e5d e73d
00000090: 2cf3 8dbe 15cb 1cbe d456 353e e995 3cbc
000000a0: 8f38 963d 309b c03e 553b 0d3e a056 fd3e
000000b0: 1ce5 3a3f d698 eabe b41f d1be 2634 4abd
000000c0: 1924 853d e2b3 353e 2196 bf3e 622b 733e
000000d0: 0eb8 1f3f 2723 3e3f b1c5 40be a02c 463e
000000e0: 1ba7 27bc aae7 02bf 83d9 13bb 129a 12be
000000f0: 71fe 3a3e 0241 1a3f 7115 f53e 4aa0 823e
00000100: 7709 1c3f d5e2 0e3f 4d6e 4abe cb0c 333e
00000110: bc45 59bd 3517 cbbe bdd6 093e b122 14bd
00000120: 5e3c bb3f 9d3a bfbd d703 f73c ffc4 d13f
00000130: abf6 073e 7df5 d63e d147 18bf 626d 0dc0
00000140: ec38 e1bf c655 053e afd5 f0bc 1505 8f3e
00000150: 8597 883e 8486 653f 02ad 983d 687d 543e
00000160: 854b 30c0 b5f9 2a3f 817c d23e 1419 843d
00000170: 098b 773e a7a6 eb3e f9f9 2f3d 5ba2 3e3e
00000180: 5366 563d 0946 31c0 941b 1e3f 7b4a b1be
00000190: c57e 473d 13e4 1fbd a712 623e a7ad c73e
000001a0: 06ff a73d 2ff2 de3e 7821 c4bf a176 373f
000001b0: 154a fbbe c2c0 2abf ee00 04be e61f 32bf
000001c0: b908 51bf 7c4b 89be d57c f7be 3061 24bf
000001d0: 661a d83d 80b3 f8be bcc3 17bf 1b6c 75bc
000001e0: 90ca 31bf 4485 7ebf 03fb e7be e9a7 1abf
000001f0: 05a3 61bf d941 04be 2049 85be 5ff7 acbd
00000200: cc5c 5ebf 6d78 10be 1c62 0bbe 4e85 11bf
00000210: 76e7 13bf 39b7 b1be 655b 8bbf fff2 a43c
00000220: 3a11 8e3e 4cca 73bf e2d7 eb3e 72d6 113f
00000230: 5fc1 40bf 74b0 ce3d 378b 163c 2fe2 11bf
00000240: ba9d a23e fa76 3b3f b20f 97be 7312 ec3e
00000250: 7d5a e13e 0d03 96be e487 aa3e 0062 083e
00000260: f3dd 8abd 2713 a83d 458b 243f b690 b3be
00000270: cc84 563e e87b d83e 75ba b8be 3e94 1e3e
00000280: a316 ec3d e564 b6bc 3506 ae3e 189d 933e
00000290: 06dd 2c3f bdf7 233d d31c e2bd 040b a13e
000002a0: 8bda 44be 1f35 b4be bc8b 913e e2a5 9b3e
000002b0: 88ab 1a3d 012e 213f 6de6 303c 1ec1 02be
000002c0: 068d 1f3f e6a6 833d becc b4bd e3f5 8a3e
000002d0: aecb d9be d4a3 5bbe 5b00 6dbf 78e0 733d
000002e0: b9c8 e33e 6775 f0be e023 cb3e 869f db3e
000002f0: 702b 1dbe 956f e0be 28b0 6ebf aa03 f0be
00000300: d7d5 41bf bf8e 2fbe 6f97 3cbe 02a0 c83f
00000310: 3e7b 7640 1b39 e23b e568 6ebf 0d0a 94bf
00000320: 762c 92bf 93d3 93bf 8e48 4cbf a8eb 9cbf
00000330: 7f30 003f 1ee0 1240 4090 4ebf fe7f 253f
00000340: e821 7e3d 82a3 0e3d ed11 c8be 6d71 bfbd
00000350: 2df1 d6bd 5d94 8e3f 3760 2540 2e03 aabe
00000360: 9190 ba3d 43c9 88bb 97c6 113e bb71 5e3d
00000370: 14a9 e3bd 42e2 50bd 9370 293d 2d05 38be
00000380: db1d a4bd 6973 67c0 9858 71c0 5b8d 6cc0
00000390: 4c31 7bc0 eabe 7fc0 b636 6dc0 ca88 71c0
000003a0: ee87 72c0 d2d6 74c0 7fa5 c73e 66e9 093f
000003b0: c89c e23e 2414 303f 6050 3a3f 7b12 463f
000003c0: cc21 023f d311 2f3f e76d 543f abca bebe
000003d0: 5c1f 82bc 5c65 a9be daa7 5bbe 70e1 29be
000003e0: 1715 24be 6bd5 0abf 0803 10bd aac0 31bc
000003f0: 4abe a73e 2ee1 b43e acf8 be3e f826 c33e
-0.15490387 -0.008355151 -0.08394095 -0.004233246 0.1344061 0.121686995 0.044681624 -0.06759817
-0.16483472 2.6417072 2.5925496 2.6843784 2.975314 2.9700215 2.89634 2.7478495
2.810676 2.7876916 0.39092168 0.41353694 0.51508003 0.41285017 0.35180637 0.5190413
0.3998209 0.39117745 0.51922137 -0.7397512 -0.5962254 -0.30765158 -0.63647985 -0.3028972
-0.27004322 -0.41654617 -0.08588432 0.11297117 -0.27724588 -0.15311845 0.17708904 -0.011510351
0.073350064 0.376184 0.13792165 0.49480152 0.73005843 -0.4581973 -0.408445 -0.04936614
0.06501026 0.17744401 0.37419227 0.23747018 0.6239022 0.7427239 -0.18825413 0.1935296
-0.010232712 -0.5113474 -0.0022560067 -0.14316586 0.18261124 0.60255444 0.4786792 0.25512916
0.6095194 0.5581487 -0.19768639 0.17485349 -0.05304502 -0.39666143 0.13460822 -0.036165897
1.4627798 -0.093373515 0.030153198 1.6388243 0.1327769 0.41984168 -0.59484583 -2.2098012
-1.7595496 0.13021001 -0.029398767 0.27933565 0.266781 0.8965838 0.074548736 0.20750964
-2.7546093 0.6678727 0.41110614 0.06450096 0.24174131 0.46025583 0.042963002 0.18616621
0.052343678 -2.7698996 0.6176083 -0.34627137 0.04870488 -0.039035868 0.22077428 0.38999674
0.08202939 0.43544146 -1.5322714 0.7166539 -0.49079958 -0.66700375 -0.1289098 -0.69579923
-0.81653935 -0.26815403 -0.48337427 -0.64210796 0.1055191 -0.48574448 -0.5928304 -0.014979388
-0.6944971 -0.994221 -0.45308694 -0.6041246 -0.88139373 -0.12915744 -0.26032352 -0.0844562
-0.86860347 -0.14108439 -0.13611645 -0.5684403 -0.57775056 -0.347101 -1.0887266 0.0201354
0.27747518 -0.95230556 0.46063143 0.5696784 -0.7529506 0.100922495 0.009188465 -0.56985754
0.3176096 0.7322842 -0.29504162 0.46107826 0.4401435 -0.29299203 0.333068 0.13318634
-0.06780615 0.08206778 0.6427501 -0.35071343 0.20949095 0.42282033 -0.36079755 0.15486237
0.11527755 -0.022264907 0.3398911 0.2883079 0.67524755 0.040031184 -0.11040654 0.31453717
-0.19223993 -0.35196778 0.2842692 0.30399996 0.03776124 0.6296082 0.010797125 -0.12768981
0.6232456 0.06428318 -0.08828114 0.27140722 -0.42538208 -0.21449214 -0.9257867 0.059540242
0.44489077 -0.4696457 0.39675808 0.42895144 -0.15348601 -0.4383513 -0.93237543 -0.46877795
-0.7571692 -0.17144297 -0.18417142 1.567383 3.851272 0.00690378 -0.93128806 -1.1565567
-1.1419818 -1.1548942 -0.7979821 -1.2259417 0.50074 2.294929 -0.8068886 0.64648426
0.062044054 0.034823902 -0.39076176 -0.09347806 -0.104952194 1.1139027 2.5839975 -0.3320555
0.09109605 -0.004174383 0.14235912 0.05430768 -0.111162335 -0.050997026 0.041367125 -0.17970724
-0.08013507 -3.616419 -3.7710323 -3.6961277 -3.9248838 -3.9960275 -3.7064643 -3.773974
-3.7895465 -3.8256116 0.3899345 0.5387176 0.4426024 0.6878073 0.7277889 0.7737195
0.5083282 0.6838657 0.829802 -0.37263998 -0.015884094 -0.33085144 -0.21450749 -0.16589904
-0.1602367 -0.542319 -0.03515914 -0.010849157 0.32762367 0.35328048 0.37299097 0.38115668

module.tNet.block.0.bias f4 [8]
00000000: bcb1 78c0 0b5c b2be 64c8 2140 b746 17c0
00000010: def1 7c3f 0afe 953f e44e 21c0 1192 e03f
-3.885848 -0.34835848 2.5278559 -2.363691 0.9880656 1.1718152 -2.52044 1.7544576

module.tNet.block.2.weight f4 [8, 8, 3, 3]
00000000: c8fd 143e ebda c93e 345f 113e 4dd7 0bbe
00000010: eb6d 8bbe 1b32 46be 05c8 6abd cc88 033e
00000020: 416b 083c cd17 0f3e c00f cebf 335f 363e
00000030: a07b 1e3e f692 213e 998d 813e 5a20 e23d
00000040: b119 22be 5b42 383e 9a5b 3abc cd78 afbd
00000050: 73d8 29be e22e cbbd 4968 a13c 8bb8 d3bd
00000060: 20d9 5c3d 4ad9 64bc 9890 b63d 2e98 31be
00000070: e253 d4bd 95e8 02be 5219 28be 1c10 52be
00000080: 576e 12be dc9a 023d 0d58 1fbd e4b9 50bb
00000090: 44bd 5a3d caf5 58bd 8987 5fbe c3c5 7b3d
000000a0: 6cf1 7e3d 7df9 ed3d f885 8b3d b553 493d
000000b0: 8185 003e 394c 20be b591 5b3f 2a93 e33c
000000c0: f288 e83e 8583 923f c559 cd3e 3d5a 18bf
000000d0: 1c06 b83c ac8a 47bf 08e4 8cbc f3b1 70be
000000e0: bbc1 66bd 78ba abbe eabe 0ec0 3f01 89be
000000f0: 1126 67be 4ffa c1be de65 1ebe 3ffb d53d
00000100: 2a52 87bd 57ea c13d b63e c23c b42e 26bf
00000110: d47b 663e 5d89 f03d 3929 633e 0aa8 bdbd
00000120: f8d5 2b3f f114 203f 4c5f 803f 7a08 493f
00000130: 7c07 603f 1112 333f d9e6 bc3e 3a79 633e
00000140: 7f1f 523e 1197 3dbf a83e c33e e8c6 32be
00000150: 97a9 23bf 6214 733e 3846 e73e ebe4 5f3e
00000160: 1f4f 98bd 7ba7 bf3e c680 50be 74e2 38bf
00000170: ea73 6abf 5ce7 53bd ee00 1bbf 85cf 3cbf
00000180: 0f46 dabe a197 8cbe 7728 2fbf f7fc 60be
00000190: 639c 9dbf be7e c1bd 667a d8be 2519 b1be
000001a0: db69 d5be 39a3 12be 5d4c 4c3e 3afe 083e
000001b0: de0d 813e 7bed 84be eaa2 133e 302e 0dbf
000001c0: 3886 8cbf 2d20 b0be 191b 68be 7b08 2cbf
000001d0: d813 dfbd ac47 1d3f 3e0c c33e 1261 d93e
000001e0: 1c25 32bd f93f d7be 6584 95be ebdf 1b3e
000001f0: f39a 55be d659 dfbc cbc5 63bf d434 343d
00000200: 5d06 1dbf d673 02be ca23 643f b53d 0dbe
00000210: 31d4 0ebc 74e0 673e 64e0 5e3e 4309 13bf
00000220: 6036 e0be d02e 1abf 58d2 3ebf 6623 a0bf
00000230: b343 fdbe e82b 00be ab6b 10be 17b1 2b3e
00000240: 3f29 92bf 1d43 48bf cafc 8bbf 7be6 89bf
00000250: 1ddb 9bbf 2ef1 99bf f979 c4bf 0359 83bf
00000260: 5450 96bf 4886 b33e 1deb de3f 25ff b43e
00000270: acbb bebe cf1f aabf fd14 1ebf 6807 493c
00000280: 4736 d53c 6997 93be b492 54be 2a54 02bf
00000290: e1e3 8fbe 9909 65be 5b70 813e 4500 933e
000002a0: ffd0 273d d30b 1bbc 8907 813d d030 73bd
000002b0: c2f4 25bf 6080 b3be 8cfe 51be bf4a 29bf
000002c0: 3b5f 18be 5fce a83c 3b65 503e 6072 efbc
000002d0: 92f4 9b3e fc4c bc3e b0bb 95be 190e 163f
000002e0: 7e56 ec3e e014 02be 383d a5be 42f0 06be
000002f0: 9230 e7be 3853 2b3f 79c9 413f d3cd a63e
00000300: 5963 a83f 26ba b33f 73f3 633f e4a1 4c3f
00000310: 194c 7a3f 7cc7 023f 0c24 a13e 81c7 693f
00000320: 0e17 633d 0ac6 11be 47ba 363f 5d94 abbe
00000330: 501e a5be 5652 fabe 3a0e 9bbd ce0c 003e
00000340: a3bb fe3e bfa7 983c 1592 a03c 5a56 7d3e
00000350: 5814 1dbf cb6b 883d 47bf 62bf 0faa 97be
00000360: 3b02 d03e b849 843e 8976 233f b1e5 363e
00000370: 2cfa d93d 8851 ff3e ebab e93e e42b 203f
00000380: 25cd 7a3f 7142 6cbe 4b37 9f3f 8d5f 20be
00000390: 10d4 02be b313 98be 0b0d 21be 333b d8bd
000003a0: becd 0ebe 8c83 8abd b22d e7be ae96 33bf
000003b0: 7cb3 7fbf f68e ffbe 6306 7abf 23ce 3dbf
000003c0: bd31 10bf b340 ccbe 88fc 48bf 0196 d03d
000003d0: d553 a0be 6122 293d b9fb f03c 32c1 9a3d
000003e0: 565a d03c 621a 043d 2718 aabc a7b2 543b
000003f0: 7d03 a3be e2bb cdbb f3c7 14be bd06 443d
0.14549935 0.39424834 0.14196473 -0.1365635 -0.27232298 -0.19355051 -0.05731966 0.12845153
0.008326353 0.13973923 -1.6098557 0.17809753 0.15476847 0.15778717 0.25303343 0.11041327
-0.15830113 0.17994063 -0.011374379 -0.08567963 -0.16586475 -0.099210516 0.019703047 -0.10337933
0.053918004 -0.013967821 0.08914298 -0.17343208 -0.10367562 -0.12784036 -0.16415909 -0.20513958
-0.14299904 0.031885967 -0.03890233 -0.003184908 0.053403154 -0.052968778 -0.21829046 0.061467897
0.062241957 0.11619852 0.06812662 0.049152095 0.12550928 -0.15654077 0.85769206 0.027780134
0.4541698 1.1446387 0.4010755 -0.5951269 0.02246385 -0.7794597 -0.017198578 -0.23505382
-0.0563371 -0.33540702 -2.2304025 -0.26758763 -0.22573115 -0.37886283 -0.15468547 0.10448312
-0.066074684 0.09468525 0.023711544 -0.64915013 0.22508174 0.1174495 0.22183694 -0.092605665
0.67123365 0.62531954 1.0029082 0.7852856 0.8751142 0.6994944 0.36894873 0.22214213
0.20519827 -0.74058634 0.3813374 -0.17458689 -0.6393065 0.23738244 0.4517076 0.21864669
-0.07436966 0.37432465 -0.20361623 -0.7222054 -0.9158312 -0.051734313 -0.60548294 -0.7375415
-0.42631575 -0.27459434 -0.6842112 -0.21971498 -1.231335 -0.09448002 -0.42280883 -0.34589496
-0.41682324 -0.14320077 0.19951005 0.1337823 0.25205892 -0.25962433 0.14417616 -0.551486
-1.097846 -0.34399548 -0.22666587 -0.6720044 -0.10892457 0.6143749 0.38095278 0.4245687
-0.04349242 -0.42040995 -0.29202572 0.15222137 -0.2085989 -0.027264517 -0.88973683 0.043995693
-0.61337835 -0.127395 0.8911711 -0.1379307 -0.008717583 0.22644216 0.21765286 -0.5743601
-0.43791485 -0.6022768 -0.7453971 -1.2510803 -0.49465713 -0.12516749 -0.14103572 0.16766773
-1.1418837 -0.78227407 -1.093652 -1.0773462 -1.2176243 -1.2026727 -1.5349723 -1.0261539
-1.1743264 0.35063386 1.7415501 0.3535091 -0.37252557 -1.3290957 -0.61750776 0.012269832
0.026026858 -0.28826454 -0.20759088 -0.50909674 -0.28103545 -0.22366942 0.25281033 0.28711143
0.0409708 -0.009463268 0.06300265 -0.059372723 -0.64826596 -0.3505888 -0.20507258 -0.6612968
-0.14880078 0.020606218 0.20351116 -0.029229343 0.3046003 0.36777484 -0.29244757 0.5861526
0.46159738 -0.12703276 -0.3227327 -0.13177589 -0.45154244 0.66923857 0.7569805 0.32578906
1.3155318 1.4041183 0.8904335 0.79934525 0.97772366 0.5108564 0.31472814 0.91320044
0.05544191 -0.14235702 0.71377987 -0.3351163 -0.3224969 -0.48890942 -0.07571073 0.12504885
0.4975253 0.018634675 0.019600907 0.24739972 -0.6135917 0.06661185 -0.88573116 -0.29621932
0.40626702 0.25837493 0.63852745 0.17861058 0.106434196 0.4986689 0.45638976 0.6256697
0.97969276 -0.2307222 1.2438749 -0.1566145 -0.12776208 -0.2970253 -0.15727632 -0.10558166
-0.13945672 -0.06763372 -0.4515205 -0.70151794 -0.99883246 -0.49913758 -0.97665995 -0.74142665
-0.56325895 -0.39893112 -0.7851033 0.10184861 -0.3131396 0.041292552 0.029416906 0.0755638
0.0254337 0.032251723 -0.02076347 0.0032455118 -0.318386 -0.006278501 -0.145294 0.04785799

module.tNet.block.2.bias f4 [8]
00000000: 11e5 193f 8f7d 54c0 ec42 a7bd 5e59 263d
00000010: 47a4 543f c58f 503f 07af 90bd 8d0c 1dbf
0.6011515 -3.3201635 -0.08167061 0.04061257 0.8306317 0.81469375 -0.07064634 -0.61347276

module.tNet.block.4.weight f4 [8, 8, 3, 3]
00000000: 9e93 5c3d 02a6 10bd aeb3 393d 8431 143d
00000010: 521b 2dc0 6a8c 033d 1667 e33d 38de e1bc
00000020: f208 af3d 1a60 2e3e 3138 f33e aca4 5a3e
00000030: c63e 2b3b a99a 1e40 4c1e 153e b818 0b3b
00000040: 5816 6ebe 87bf 2b3d 022b 8abe cb5c 83be
00000050: 6b5c 12be 9ad8 85be 5b6f a7be 335c edbd
00000060: ffac 52bb 16a8 94bd 112d 57bc cd2d 15bd
00000070: 3853 a0bc d520 0fbd 620a 2abb 6685 1d3d
00000080: 23d7 55bc 5a45 97bc 501b ccbb 1cf5 c5bc
00000090: d813 5cbd 25ae afbc dbe6 07bd e0f3 22bd
000000a0: a86c 713d 3085 8e3c 3837 2bbc d4bf 74ba
000000b0: 83f1 59bc 026e 12bd d99a 18bd b805 11bd
000000c0: 75c8 09bd 7e26 bebf 5e7d dabc 220a 3dbd
000000d0: b520 09bd bad3 04bd a33c 24bd 3b89 523a
000000e0: d4bb 183d 4ffa 6cbd c16e a5bd c971 23bc
000000f0: 2fcf 7bbd 7ed6 fabc 9549 b4bb 85c9 12bd
00000100: 1e73 50bd 8a04 acbc 5132 5cbd 26c2 12be
00000110: 2d17 2fbd e5f9 20bd faa3 39bd 9a1f 35bd
00000120: 974d dabc fcd6 a53c 9bfa 003c f734 8dbc
00000130: 0d99 a93e b4e9 95bc fc19 0a3d 98fb 1a3d
00000140: 17d4 aabc 7f4c bf3d 2d0d e43e ebd9 2d3c
00000150: 625a 0c3f 96bf 3b3f 8e5e 1e3f 5545 6b3e
00000160: 8c53 503f ecd7 833e 97ec 1fbd 0625 82be
00000170: c083 78bd 2845 10bf ac1d 1dc0 bd8f 2fbf
00000180: 7360 e9be 228a 6cbf 2a3e 03bf 57bf 523c
00000190: 9d93 1dbb 6e31 dbba 2e0d c0bb 036a 32be
000001a0: 851c 80bc 7ed3 243b 75e9 7abc 3254 f2bb
000001b0: 9ab8 013d 92b8 49bd 0f00 d0bc 74da fbbc
000001c0: eadf aa3d 99bb a5bd 14ba a3bd ad35 21be
000001d0: 89ae 06be 416d 87bc 0c50 bd3b 248f 86bc
000001e0: 075c 82bc 5aec 9c3d 4a1f 98bc d7a1 19bc
000001f0: e901 d33b 0d1d 85bc e6f7 0f3d 12fc 10bd
00000200: d987 993c b047 373c 6edd 97bd c158 073a
00000210: fffd 1e3d d315 993c a24b 4a3d 6753 e3bc
00000220: 831f 94bd 52fa a23b 08f0 3abd 57b9 9abd
00000230: c21b 78bc 4e2a d9bc 0206 18bd 9d33 e6b9
00000240: fd92 283d 09e0 813d c6a1 5c3d 8842 963d
00000250: b010 793d 0359 5f3d 0060 f9bd 48bb ecbc
00000260: 41fc bdbd f522 b2bb eaa6 393f 0700 083e
00000270: 2102 0c3f c0cb e13c 7abc 3c3f 6a59 64bd
00000280: 72c3 5a3f 68bc 143e 258c db3b 6e2e 67bc
00000290: f9be 2b3c c693 0bbd a36e 103e 9072 b2bc
000002a0: 6731 96ba bc2a fd3c 2934 a73c 6684 3e3d
000002b0: 11a6 053d dee6 ed3c c26a 9b3d 0d49 51bf
000002c0: dcae a83d cefc 5f3d 7a9c 3a3d c294 8c3d
000002d0: 7c54 d23b ac8c bb3a eb7c 233c 79d1 bd3d
000002e0: aea5 a93d 3c9c 9b3d ef47 1e3e 801b 943d
000002f0: b73c 0a3e 5de9 b0bc e378 743a 9cf3 7abc
00000300: f05a d0bc 625e 9c3c 503d 46bc 5fb1 11bd
00000310: 662a 0d3a b1c0 aebc 6294 71be 5b93 a3be
00000320: fefd a1be 0e43 89be fc9a b6bd 63f7 8cbe
00000330: f0db 99bd c818 5fbe 7300 4cbe 0266 7cbd
00000340: 9349 7fbd 3123 b0bd 1b7b 02be 8b40 1bbd
00000350: 800e 09be a390 823c f591 8abc d15f 6fbc
00000360: d8dd b53c 2a22 893d 94d2 0d3e 9113 313d
00000370: 0413 ec3e 6cf7 e03d 0e1f 893d 023a 893d
00000380: 623d eb3d f487 4a3f 7909 853f 769d e73e
00000390: e927 6c3f 41a5 9c3f 04fb 6f3f 6585 0a3f
000003a0: ba01 973f 90a0 223f 8d0e 6f3d 37b6 4d3d
000003b0: 186d 633d 299c be3d 473b 89bd ad59 063e
000003c0: 67e8 c43d 9a4e 023e 6342 cc3d 29bd debd
000003d0: 24e2 a2bd 7ca9 c93c d34f ff3c 253f 9ac0
000003e0: ab65 7e3d bd6b 563d 541d 61be a2ff a13c
000003f0: bb37 adbd 3efb 0c3d 4508 883d bd5f 513d
0.053851716 -0.035314567 0.04533737 0.036180034 -2.7047925 0.03211633 0.111036465 -0.027571782
0.08546628 0.17028847 0.47503808 0.2135188 0.0026129945 2.4781897 0.14562339 0.002122445
-0.23250711 0.0419307 -0.26985937 -0.25656733 -0.14293067 -0.26141816 -0.32702145 -0.11589851
-0.003214657 -0.07258622 -0.013133303 -0.036420632 -0.019570932 -0.03494342 -0.002594613 0.038457297
-0.013051781 -0.018465687 -0.006228842 -0.024164729 -0.053729862 -0.021445343 -0.033179145 -0.03978336
0.058941513 0.017397493 -0.010450177 -0.0009336446 -0.01330221 -0.035749443 -0.03725705 -0.035405844
-0.033638436 -1.4855497 -0.026671108 -0.04615224 -0.033478457 -0.03242848 -0.04009689 0.0008031313
0.0372885 -0.0578559 -0.08077765 -0.009975859 -0.061476883 -0.030619856 -0.0055019357 -0.035836715
-0.050891034 -0.020998258 -0.053758923 -0.14331874 -0.04274671 -0.039300818 -0.045322396 -0.04421959
-0.026648326 0.020244114 0.007872249 -0.01723717 0.3312458 -0.018299915 0.033716187 0.037837595
-0.020853085 0.09340762 0.44541302 0.010611038 0.54825413 0.7333921 0.6186303 0.22975667
0.8137748 0.25750673 -0.03904399 -0.25418872 -0.06067252 -0.56355524 -2.454936 -0.685787
-0.45581397 -0.92398274 -0.5126673 0.012863002 -0.0024044283 -0.0016723105 -0.005860946 -0.17423253
-0.0156386 0.0025150473 -0.01531445 -0.007395291 0.03167019 -0.049248286 -0.025390653 -0.030743815
0.083434895 -0.08092422 -0.07994476 -0.15743132 -0.13152517 -0.016531589 0.0057773646 -0.016425677
-0.015913023 0.07662268 -0.018569607 -0.0093769645 0.0064394367 -0.016249204 0.035148524 -0.035396643
0.018741535 0.011186525 -0.07415281 0.00051630667 0.03881645 0.018687164 0.049388535 -0.02774973
-0.07232573 0.004973688 -0.045639068 -0.07554882 -0.015143337 -0.02650943 -0.037115104 -0.00043907473
0.041155804 0.063415594 0.053865217 0.073369086 0.06080693 0.054528248 -0.12176514 -0.028897896
-0.09276629 -0.005436296 0.72520316 0.1328126 0.5469075 0.027562976 0.7372509 -0.055749334
0.85454476 0.14524996 0.006700056 -0.014110191 0.010482543 -0.034076475 0.14104705 -0.021783143
-0.0011458815 0.030904166 0.020410614 0.046512984 0.032629076 0.02904075 0.07588722 -0.8175209
0.08236477 0.054684453 0.045559384 0.06864311 0.0064187627 0.0014308891 0.009978513 0.09268469
0.08283554 0.07598159 0.15457128 0.07231808 0.13499723 -0.021595651 0.0009325875 -0.01531687
-0.025433987 0.019087974 -0.012099579 -0.035569545 0.0005385041 -0.021332117 -0.2359176 -0.3194836
-0.31639093 -0.2680897 -0.0891628 -0.2753249 -0.07512653 -0.21786797 -0.19922046 -0.06162072
-0.062326025 -0.08600462 -0.12742274 -0.03790335 -0.13384438 0.015938109 -0.0169153 -0.014610247
0.02220051 0.066959694 0.1384986 0.04323155 0.46108258 0.10984692 0.06695376 0.06700517
0.11486317 0.791137 1.0393516 0.4523732 0.922484 1.2237931 0.93742394 0.54109794
1.1797402 0.6352625 0.058363486 0.0502226 0.05552396 0.09307129 -0.067007594 0.13120146
0.0961464 0.12725297 0.099736 -0.10875923 -0.07953289 0.02461695 0.031165993 -4.820208
0.062108677 0.05234884 -0.21983844 0.019775216 -0.08457895 0.03441929 0.06642202 0.051116694

module.tNet.block.4.bias f4 [8]
00000000: b748 e33e 8e18 893e 307e 903e 9bfc b8bf
00000010: 8025 2c3e 924c bcbf 07e9 b0be 958e 323e
0.44391415 0.26776546 0.28221273 -1.4452089 0.1681118 -1.4710867 -0.34552786 0.17437203

module.tNet.block.6.weight f4 [3, 8, 3, 3]
00000000: 5e44 383d d464 983c 0e23 413d cbe0 823c
00000010: dfe0 ab3c 9252 843c 8c2e 163d d058 f43d
00000020: 52df 6b3d a9f9 ba3c 65fa a53c f2fa 0e3c
00000030: 378e 8d3c 35a1 d1bc 8b2c 903c 6bd1 473d
00000040: cb52 9ebd 0d16 1a3d 055c 9f3b 8967 1bbb
00000050: 3df2 6e3b fa9d 173c f068 26b9 a92b b43b
00000060: 0dbd 513c f639 97bc ea17 f23a 1f97 43bd
00000070: f153 fd3c 36c6 09bd fdd7 eebc b230 1ebd
00000080: e8e2 99bc 515f b0bc 8dfe 90be 3865 5fbd
00000090: ee5d 9b3d 70e0 7a3d dcdf 393d e937 ee3d
000000a0: aabe ab3d 75aa f73d eb86 873d c748 1f3d
000000b0: 3b7a 8c3d 6a75 fc3b 0656 60bd f3f8 023d
000000c0: c281 29be ed74 5bbe 3719 1ebe 9613 09be
000000d0: 6daa 07bf bc62 74be eada 2c3e dfd5 6ebe
000000e0: d270 933d 1be0 3c3e 1001 17bd e7a9 323e
000000f0: b30c 963c f0cf 07be 2025 223d 5164 a23d
00000100: 03e8 f93c c44d d13d e11b 083e 0a03 823e
00000110: 08b9 263e cadc 3a3d 01a7 843f 16a7 8c3e
00000120: 0d85 95bc 79bb 39bc f9dd 06bd e074 ac3a
00000130: b9b8 62bd 5889 c3ba 3a5c b7bb 8a26 6cbe
00000140: 22d4 48bd a16b 0c3b a0f1 c5bb a3cc 5d3c
00000150: 30bf 823c b67a 493d a0cb b73c 009b 86bc
00000160: bc89 063e 0cd2 ab3c 7c8f bc3d a5f4 583d
00000170: 2820 d63d 2d90 503d 8c71 ce3b 8729 3a3d
00000180: 86a0 df3d 3cc8 893d bdbb de3d 6400 d83d
00000190: 63d5 c8bd 4539 363d 1112 713d f29e 333e
000001a0: b807 9a3d 99f7 483a 4f51 773f 41d0 0e3e
000001b0: 7658 ac3d 8b15 3a3d 65e7 963d 3df1 5abd
000001c0: bcda 84bd 7dea 64bd 2a86 9b3d d6ae 05bc
000001d0: c33c 8a3d 808f fabe 45e7 47be de6c 1cbf
000001e0: 6358 92be 6365 83bd 9d1e 31be 754d afbe
000001f0: a602 9dbe df0d cdbe 8f78 5b3d 6830 343f
00000200: 4621 113f fbaa ef3d 34aa 2c3e b10c 573e
00000210: 538e 783e e197 65be 1b75 0e3e b063 56bd
00000220: 6657 68bd d0a3 c3bd fbf6 e9bc 6bbf 05bd
00000230: be48 23bd 6d5e ac39 7179 3cbe b8f4 4ebd
00000240: 54f5 ff3b f0b8 f53b aa98 10b9 a615 823c
00000250: f249 4dbc 7104 493c bc95 bc3c 2932 d8bd
00000260: d86e 0fba fd9c 3a3d d05f 823c 6598 393d
00000270: 4e34 103d 4b99 5b3d a28a 223d 7507 f03c
00000280: 52f9 1c3e 5cb5 603d ddfc a9bb cc69 133c
00000290: 65d7 a03b 1fa9 83bb 12b9 77bb 1168 06bb
000002a0: 4806 cebc e049 c0bb cba2 e1bb 7655 cf3d
000002b0: 0874 61bd 79f5 9b3d 5c37 7d3d 65a0 e83d
000002c0: 6d7b 883d dc43 8d3d 8ced 183f dbc1 0e3e
000002d0: 7e13 243d 1374 ef3c 570a 2a3d a5bc eabc
000002e0: 41db 02bd 6286 febc f309 1e3d e87d b53b
000002f0: 5fe5 443d 9491 67be dd89 06be a408 38be
00000300: 898f 25be eb7c 99bc 25e1 89bd b3f5 81be
00000310: fc69 d8bd efc2 8dbe eff8 08be baee 373e
00000320: 57ef 94bd 9f0a 88be 839f 1cbe 31bc 8cbe
00000330: c998 6cbe 50c9 e1be 1768 9bbe e1c6 46bc
00000340: 0345 24bc a226 febc 6524 90bb 750d 39bd
00000350: f4a6 a6bb ef8a 543d 226a 86be 3cef b3bc
0.044987075 0.018602766 0.04715257 0.01597633 0.02098125 0.016152654 0.036665484 0.11931002
0.05758602 0.022824125 0.020260999 0.008726822 0.017279727 -0.025589565 0.017599365 0.0487837
-0.07730635 0.037618686 0.0048632645 -0.0023712835 0.0036460303 0.009253973 -0.00015870086 0.0054983688
0.012801421 -0.018460255 0.0018470262 -0.047751542 0.030923815 -0.033636294 -0.029155726 -0.03862066
-0.018784955 -0.021529825 -0.28319207 -0.05453989 0.07586275 0.061249197 0.045379505 0.11631758
0.08385976 0.12093059 0.066175304 0.038887765 0.06859251 0.0077044265 -0.05476954 0.031975698
-0.16553405 -0.21431322 -0.15439306 -0.13386378 -0.52994424 -0.23865789 0.16880384 -0.23323773
0.07199253 0.18444864 -0.036866248 0.17447625 0.018316602 -0.13262916 0.039586186 0.0792929
0.03050614 0.10219911 0.13291885 0.25392944 0.16281521 0.045620717 1.0363466 0.27471226
-0.01825192 -0.011336201 -0.032926533 0.001315739 -0.055351947 -0.0014918251 -0.005595711 -0.23061576
-0.04903043 0.0021426457 -0.006040767 0.013537559 0.015960306 0.049189292 0.022435963 -0.016431332
0.13138479 0.020974182 0.09207055 0.052967686 0.10455352 0.050918747 0.006300157 0.04544976
0.10919289 0.06727645 0.10875652 0.105469495 -0.09806325 0.04448821 0.05885512 0.17541102
0.075210035 0.00076662895 0.9660844 0.1394663 0.0841531 0.0454307 0.07368354 -0.05345272
-0.06487033 -0.055887688 0.07593949 -0.00815936 0.06749871 -0.48937607 -0.19521816 -0.6110362
-0.2858306 -0.06415822 -0.17296834 -0.34238783 -0.30666083 -0.40049645 0.05358177 0.7038636
0.56691396 0.11702534 0.16861802 0.21000935 0.24273042 -0.22421218 0.1391186 -0.052341163
-0.056723975 -0.09552729 -0.028560152 -0.032653254 -0.039864294 0.0003287675 -0.18405701 -0.05052635
0.007811228 0.007498853 -0.00013789782 0.015879463 -0.012529837 0.012269125 0.023020618 -0.10556442
-0.0005471534 0.045559872 0.015914828 0.04531135 0.03520613 0.05361299 0.03968299 0.02930043
0.15329483 0.054860458 -0.0051876144 0.008997392 0.0049084895 -0.0040179635 -0.003779952 -0.0020508806
-0.02514948 -0.0058681816 -0.0068858615 0.10123722 -0.055042297 0.076151796 0.061820373 0.11358718
0.066641666 0.06897709 0.5973747 0.13941137 0.04005765 0.029230153 0.041513767 -0.028654406
-0.031947378 -0.031069938 0.038583707 0.005538691 0.048070308 -0.22614127 -0.13138528 -0.17972046
-0.16168036 -0.018736323 -0.06732396 -0.25382766 -0.1056709 -0.27687785 -0.1337621 0.1796216
-0.07272213 -0.26570603 -0.15295224 -0.2748733 -0.23105158 -0.44098902 -0.30352852 -0.012132377
-0.010026219 -0.031024281 -0.00439887 -0.04517885 -0.0050858203 0.05189031 -0.26252848 -0.021964662

module.tNet.block.6.bias f4 [3]
00000000: 6c6c 583f 16a8 743f 1fdc 6d3f
0.8454044 0.9556898 0.92914003

exp_avg f4 [3, 3, 3, 3]
00000000: 8742 7f3a 14da 7e3a dc61 7e3a 72f7 7d3a
00000010: bd93 7d3a 544d 7d3a 3880 743a 752f 743a
00000020: d732 743a 9305 493a 3f90 483a e9ad 483a
00000030: 85da 473a a774 473a 7ccd 473a d5d2 403a
00000040: ef85 403a 5d2d 413a e494 a03a a564 a03a
00000050: c761 a03a a426 a03a 0aff 9f3a 7616 a03a
00000060: f450 9b3a 8d34 9b3a 7e71 9b3a a309 20b8
00000070: 05e0 3ab8 b05b 2fb8 7679 e3b7 d803 04b8
00000080: f977 efb7 164f 03b8 3614 10b8 83ef 06b8
00000090: 6fe8 133a fd85 123a 23fe 123a 61d2 153a
000000a0: 03e6 143a eb83 153a dccb 053a af2a 053a
000000b0: fba9 053a c93f 5639 a1f6 4e39 0db5 5139
000000c0: 91c5 5f39 1c60 5a39 f52d 5d39 627f 3f39
000000d0: c5f2 3b39 d08d 3d39 c377 3fb9 38a7 3fb9
000000e0: fd4a 41b9 d2a4 39b9 22ba 38b9 0856 3bb9
000000f0: 8624 3ab9 a5ca 38b9 4f8d 3bb9 290e d5b9
00000100: e193 d4b9 75e8 d4b9 bd7b d1b9 3f66 d0b9
00000110: 5648 d1b9 fa03 d1b9 20c7 cfb9 35d9 d0b9
00000120: 399e d8b9 a2b8 d7b9 dc15 d8b9 66d6 d4b9
00000130: 5350 d3b9 3f3d d4b9 af71 d4b9 a0bf d2b9
00000140: ded8 d3b9
0.00097373914 0.0009721827 0.0009703913 0.00096880563 0.0009673199 0.0009662707 0.00093269674 0.0009314933
0.0009315437 0.0007668372 0.0007650889 0.0007655309 0.00076238095 0.000760863 0.0007621867 0.0007355635
0.00073441764 0.00073691254 0.0012251404 0.0012237026 0.0012236171 0.0012218547 0.0012206745 0.0012213725
0.0011849687 0.0011841223 0.0011859385 -3.8155948e-05 -4.455449e-05 -4.1808642e-05 -2.7117068e-05 -3.1474832e-05
-2.8546887e-05 -3.130649e-05 -3.43511e-05 -3.2171152e-05 0.000564224 0.0005589424 0.00056073273 0.0005715248
0.00056800264 0.0005703556 0.0005103925 0.0005079908 0.00050988764 0.00020432392 0.00019737567 0.0001999924
0.00021340536 0.00020825904 0.00021093323 0.00018262633 0.00017924148 0.00018077274 -0.00018259794 -0.00018277473
-0.0001843385 -0.00017704375 -0.00017616947 -0.00017865759 -0.00017751948 -0.00017623098 -0.00017886351 -0.00040637076
-0.0004054597 -0.00040608985 -0.0003995578 -0.0003974903 -0.0003991748 -0.0003986655 -0.00039630476 -0.00039834683
-0.00041316616 -0.00041145558 -0.00041215017 -0.0004059553 -0.00040304902 -0.00040481423 -0.00040520492 -0.00040197093
-0.00040406635

exp_avg_sq f4 [3, 3, 3, 3]
00000000: e99f 1737 9029 1737 8b8c 1437 bc29 1537
00000010: 1c9e 1437 e792 1237 adb3 0337 5662 0337
00000020: 05d8 0137 0c98 a937 3163 a937 d31e a737
00000030: b307 a837 cbc5 a737 92e6 a537 4b28 9937
00000040: 680f 9937 0f99 9737 4fdd a437 c5bb a437
00000050: 4dc7 a237 3e9d a337 df71 a337 aad1 a137
00000060: aadc 9637 a3d4 9637 7e89 9537 4961 6737
00000070: ba7b 6a37 deb8 6737 1514 6137 c96a 6337
00000080: d8f1 6137 fc6a 4f37 1a33 5037 1561 5037
00000090: cd91 0538 d499 0638 c8ac 0538 0b57 0338
000000a0: 2d23 0438 7795 0338 ff42 f537 b4e1 f537
000000b0: b7d9 f537 70ba ec37 e449 ee37 38d7 ec37
000000c0: 31f0 e837 5123 ea37 b044 e937 4581 da37
000000d0: a8f6 da37 85f3 da37 99de 9635 3110 9735
000000e0: d5bb 9635 b87b 9235 acfc 9135 9e86 9235
000000f0: d225 8c35 3fba 8b35 3876 8c35 e30f a436
00000100: 0b56 a436 5ac0 a336 0d05 a136 75dc a036
00000110: 79bf a036 320b 9a36 89e6 9936 a8f4 9936
00000120: bf8a b936 97e6 b936 de2c b936 e42a b636
00000130: 1f0a b636 13d5 b536 53b0 ae36 3e93 ae36
00000140: 9f91 ae36
9.037533e-06 9.009978e-06 8.85421e-06 8.890809e-06 8.8583e-06 8.7364815e-06 7.8500425e-06 7.831104e-06
7.739295e-06 2.0217172e-05 2.019256e-05 1.9922305e-05 2.0030746e-05 2.0000056e-05 1.97769e-05 1.8257784e-05
1.8246195e-05 1.8071876e-05 1.9653378e-05 1.963776e-05 1.9404712e-05 1.9504336e-05 1.948414e-05 1.9290328e-05
1.7984148e-05 1.798041e-05 1.7826209e-05 1.3791324e-05 1.3976294e-05 1.3811716e-05 1.3415721e-05 1.3555117e-05
1.3467354e-05 1.2363071e-05 1.2409664e-05 1.242037e-05 3.184546e-05 3.2091353e-05 3.1870586e-05 3.13139e-05
3.1504012e-05 3.1372034e-05 2.9237473e-05 2.9311377e-05 2.9307657e-05 2.8220209e-05 2.8406219e-05 2.8233611e-05
2.7768403e-05 2.791142e-05 2.780775e-05 2.6047821e-05 2.6102483e-05 2.6101023e-05 1.1240655e-06 1.1255089e-06
1.1230537e-06 1.0913855e-06 1.0876879e-06 1.0917026e-06 1.044182e-06 1.0410512e-06 1.0465219e-06 4.8894303e-06
4.8975976e-06 4.880171e-06 4.798762e-06 4.794036e-06 4.790662e-06 4.590861e-06 4.586593e-06 4.588237e-06
5.529582e-06 5.540274e-06 5.518653e-06 5.429016e-06 5.425201e-06 5.4190255e-06 5.206131e-06 5.2027453e-06
5.2025566e-06

exp_avg f4 [3]
00000000: 9b4d 673b 217e 4a3a 8790 78ba
0.003529406 0.0007724483 -0.00094819855

exp_avg_sq f4 [3]
00000000: f6f6 ce38 0bc5 ac38 9e97 d637
9.8688455e-05 8.238301e-05 2.558139e-05

exp_avg f4 [3, 3, 3, 3]
00000000: 5516 20b7 44e6 adb6 08d9 09b7 bc4e 73b7
00000010: efae 3bb7 d680 7fb7 02d4 0fb8 2f22 0bb8
00000020: f5d7 1ab8 e5ae a439 1c9a a239 d0d3 a239
00000030: c613 a139 8a08 9e39 a795 9e39 37e4 9a39
00000040: 852d 9739 a107 9839 480e 81b9 f20e 7db9
00000050: 6980 7cb9 c755 84b9 c6d3 81b9 526d 81b9
00000060: 5e48 8ab9 5635 88b9 e06f 87b9 5c55 38ba
00000070: 7d95 37ba 5abd 36ba 4270 34ba b26b 33ba
00000080: dbc6 32ba b634 31ba fe30 30ba ace3 2fba
00000090: d5f5 58ba 895a 59ba 3cd2 58ba 01ea 52ba
000000a0: be43 53ba 31f0 52ba 2db9 51ba 2e1d 52ba
000000b0: 35e4 51ba 1c03 9ab9 bba1 99b9 652a 99b9
000000c0: 7a54 97b9 f29f 96b9 b148 96b9 18c2 93b9
000000d0: 9ee2 92b9 8beb 92b9 c066 aeb8 ea6a adb8
000000e0: 0fe1 abb8 d432 80b8 499b 7eb8 afef 7db8
000000f0: 017d 69b8 7534 69b8 b7ec 69b8 3b9d 45b8
00000100: 0e44 47b8 6ae2 4db8 40f8 9db7 1652 b1b7
00000110: b8c7 b7b7 790b 00b8 3a9b 10b8 68a1 11b8
00000120: 9dcf 08b9 6369 07b9 c913 0ab9 daf4 04b9
00000130: 05fe 03b9 6660 06b9 ff9c 04b9 40a4 03b9
00000140: 9a3d 05b9
-9.541943e-06 -5.182608e-06 -8.216368e-06 -1.45022605e-05 -1.11867985e-05 -1.5229181e-05 -3.4291304e-05 -3.317202e-05
-3.6917587e-05 0.00031410824 0.00031013868 0.0003105686 0.00030723045 0.0003014247 0.00030247608 0.00029543202
0.0002883488 0.00028997383 -0.00024615438 -0.00024133528 -0.0002408043 -0.0002524091 -0.0002476258 -0.00024686247
-0.0002637533 -0.0002597968 -0.0002583256 -0.00070317625 -0.00070031715 -0.00069709646 -0.0006883183 -0.0006844356
-0.0006819793 -0.00067598687 -0.00067211676 -0.0006709646 -0.0008276378 -0.0008291384 -0.00082710735 -0.00080457336
-0.00080591056 -0.00080466556 -0.00080003106 -0.00080152124 -0.0008006723 -0.00029375486 -0.00029302933 -0.0002921402
-0.00028863904 -0.00028729398 -0.0002866439 -0.00028182636 -0.00028016133 -0.00028022783 -8.316105e-05 -8.269197e-05
-8.195836e-05 -6.112983e-05 -6.070294e-05 -6.0543123e-05 -5.5667948e-05 -5.5600383e-05 -5.5771987e-05 -4.7114892e-05
-4.7508678e-05 -4.9086673e-05 -1.8831459e-05 -2.1138268e-05 -2.1908301e-05 -3.0528263e-05 -3.447684e-05 -3.4721015e-05
-0.00013047313 -0.00012913863 -0.00013168076 -0.00012679715 -0.00012587763 -0.00012815147 -0.00012646987 -0.00012554321
-0.00012706817

exp_avg_sq f4 [3, 3, 3, 3]
00000000: 150f 8f37 51c7 8f37 4872 8f37 3452 8c37
00000010: e7e9 8c37 d295 8c37 0282 8937 41e0 8937
00000020: 16ad 8937 4f50 0537 59c6 0537 b3a2 0537
00000030: a9b2 fc36 f0b8 fc36 abbf fc36 c079 f836
00000040: ff41 f836 4a4d f836 17da 7c36 e789 7e36
00000050: c36c 7e36 7af7 7a36 2182 7c36 b073 7c36
00000060: 8499 7736 3ab1 7836 3ec0 7836 520b a637
00000070: af12 a637 8bd4 a537 7e0a a337 6605 a337
00000080: 5dc4 a237 9e54 a137 4441 a137 e70d a137
00000090: f846 4837 413e 4937 6131 4837 29e0 4037
000000a0: 36ab 4137 47e4 4037 f9ad 3e37 3072 3f37
000000b0: 60c7 3e37 0c91 8136 f1b4 8136 9f06 8236
000000c0: 530b 8036 9a2c 8036 df65 8036 13d0 7d36
000000d0: 9d09 7e36 f062 7e36 4d91 a036 cfde 9c36
000000e0: 1d11 9b36 5b26 8d36 10c6 8936 b3d1 8836
000000f0: 8c9a 8736 eab5 8436 312e 8436 2676 b036
00000100: 0082 b236 6b32 af36 db95 a836 74ab a936
00000110: a3a3 a736 d857 9c36 cfb0 9c36 ec3a 9b36
00000120: b28d 9f36 bd00 a136 e3e6 9f36 f86a a136
00000130: b83d a336 0ef5 a136 419e a136 bdb7 a336
00000140: fd18 a236
1.7053952e-05 1.7139742e-05 1.7100145e-05 1.672758e-05 1.679822e-05 1.6759066e-05 1.6392212e-05 1.6436099e-05
1.6412272e-05 7.946116e-06 7.973599e-06 7.965299e-06 7.530984e-06 7.531715e-06 7.5324983e-06 7.4051495e-06
7.398659e-06 7.3999736e-06 3.7677871e-06 3.792922e-06 3.7912257e-06 3.7396953e-06 3.7626671e-06 3.7618265e-06
3.6895226e-06 3.705804e-06 3.706678e-06 1.9794013e-05 1.9797442e-05 1.9768506e-05 1.9436e-05 1.9433628e-05
1.9403344e-05 1.9232099e-05 1.9223087e-05 1.919917e-05 1.1937453e-05 1.1995028e-05 1.1932426e-05 1.1496283e-05
1.154356e-05 1.1497242e-05 1.1365389e-05 1.14110735e-05 1.1371303e-05 3.8613853e-06 3.865564e-06 3.8750727e-06
3.8160156e-06 3.8198896e-06 3.8265566e-06 3.7821053e-06 3.7854545e-06 3.7906539e-06 4.785287e-06 4.6751006e-06
4.621352e-06 4.2065926e-06 4.1059757e-06 4.077528e-06 4.041305e-06 3.955084e-06 3.939284e-06 5.258963e-06
5.3199474e-06 5.221276e-06 5.0242356e-06 5.0565523e-06 4.9960377e-06 4.6593887e-06 4.6697455e-06 4.6262194e-06
4.7550648e-06 4.79826e-06 4.765448e-06 4.8106267e-06 4.8649636e-06 4.826702e-06 4.816597e-06 4.8791685e-06
4.8308852e-06

exp_avg f4 [3]
00000000: 4ce1 01bb 1aa4 533b 9cda 833a
-0.0019818125 0.0032293857 0.0010059658

exp_avg_sq f4 [3]
00000000: a047 0639 7e87 4639 05cc 9c38
0.00012805918 0.00018933226 7.476661e-05

exp_avg f4 [3, 3, 1, 1]
00000000: 6798 183a a85c f3ba c6a3 65bb ef52 95ba
00000010: 9c15 b3bb 89e3 bcb9 1084 423b 3ead d8ba
00000020: d0bf 63bc
0.00058210496 -0.0018567042 -0.0035040244 -0.0011392514 -0.0054652225 -0.0003602768 0.0029680766 -0.0016531122
-0.013900712

exp_avg_sq f4 [3, 3, 1, 1]
00000000: 56af 2738 0c4a cf38 6353 4539 239b 053a
00000010: 6873 b13a 4270 f536 ede3 5739 56dc 1d3a
00000020: 8876 933a
3.9979197e-05 9.8843215e-05 0.00018818448 0.00050966645 0.0013538422 7.3146375e-06 0.00020588907 0.00060219073
0.0011250535

exp_avg f4 [3]
00000000: ec45 73bb f441 bfbb 282f 8bbb
-0.0037120534 -0.0058367196 -0.004247565

exp_avg_sq f4 [3]
00000000: cb04 5639 07bd 7a3a a020 f83a
0.00020410416 0.00095649104 0.0018930621

exp_avg f4 [3, 3, 1, 1]
00000000: 68ac 453b dc44 6bba d071 c1bb 1879 58bc
00000010: 5c9b b0ba 8ae7 7e3c c5ed 10ba 2ca8 eaba
00000020: 9862 18ba
0.0030162577 -0.00089747994 -0.00590346 -0.013212465 -0.0013474035 0.015558133 -0.00055285945 -0.0017902902
-0.00058130315

exp_avg_sq f4 [3, 3, 1, 1]
00000000: c208 c638 7a29 6f39 977e aa3a dfd9 4e3a
00000010: fd50 093b 67a0 983b 8236 4c38 92ad 6e39
00000020: b88e 7c39
9.443007e-05 0.00022808267 0.0013007697 0.00078907417 0.0020952814 0.0046577933 4.8688154e-05 0.00022762109
0.0002408576

exp_avg f4 [3]
00000000: 30e8 5cbc c737 7b3d a647 e73a
-0.013483092 0.06133249 0.0017645254

exp_avg_sq f4 [3]
00000000: 1f02 0b3b 1973 df3c a2de 023b
0.002121098 0.027276563 0.0019969125

exp_avg f4 [8, 6, 3, 3]
00000000: f5d5 c138 fdd5 be38 436a bf38 5c95 c038
00000010: d294 bd38 8f29 be38 f847 bf38 3748 bc38
00000020: 83db bc38 74b0 9e37 10de 9d37 5210 9e37
00000030: 8e71 9e37 0b9f 9d37 5bd1 9d37 57fa 9d37
00000040: 1528 9d37 0e5a 9d37 0e22 ec37 9179 ed37
00000050: 8935 ed37 845c ec37 1ab4 ed37 f16f ed37
00000060: de1f ed37 1177 ee37 8e33 ee37 33e0 8538
00000070: 2798 8538 da6d 8638 98df 8638 fb91 8638
00000080: 7d4a 8738 6dc6 8738 331c 8738 3da4 8738
00000090: 9edf 56b8 4ee7 59b8 cfe0 57b8 d7fc 56b8
000000a0: 101c 5ab8 0b41 58b8 231f 55b8 a706 59b8
000000b0: 3482 57b8 bfa1 3138 841c 2f38 1c00 3138
000000c0: 3b60 3238 f7c0 2f38 3d60 3138 7b69 3438
000000d0: 72ff 3038 1c24 3238 603a 133a 634a 133a
000000e0: 073a 133a 5642 133a 1252 133a 9e41 133a
000000f0: 7469 183a 0f7c 183a 4d6b 183a 948d 4538
00000100: 2802 4638 c2ee 4538 7c3e 4538 b0b2 4538
00000110: 379f 4538 cfae 4a38 4226 4b38 8a12 4b38
00000120: f33a 1bb8 0ecb 1ab8 eac0 1ab8 671c 1cb8
00000130: 7fab 1bb8 41a1 1bb8 3295 22b8 fe27 22b8
00000140: da1c 22b8 a2bb 1738 c80a 1138 3f66 1f38
00000150: 3d05 1038 6b9e 0e38 80d7 1938 b1e7 3038
00000160: 4b3d 3338 de51 3538 cf2e 5039 8423 4f39
00000170: 39ef 5239 f2a4 4f39 27ae 5039 c773 5339
00000180: 47b3 6039 5ecc 6339 18a9 6339 26a7 3c39
00000190: 63db 3a39 e170 3e39 5629 3b39 7b55 3b39
000001a0: 9281 3e39 366b 4739 4734 4939 d42c 4a39
000001b0: 4547 0cba 58b5 09ba 9875 0aba 824b 09ba
000001c0: a3b8 06ba 3a79 07ba 767e 0cba cdeb 09ba
000001d0: b7ab 0aba 8cef 69b8 1c61 67b8 bf24 68b8
000001e0: db91 66b8 8002 64b8 a9c6 64b8 051b 6ab8
000001f0: f68b 67b8 804f 68b8 8483 3137 a867 1f37
00000200: 2f6b 2537 ac89 2637 0d67 1437 f369 1a37
00000210: b598 3637 ce77 2437 5a72 2a37 b9db 77b9
00000220: ebed 70b9 26e8 63b9 63ff 7ab9 3079 71b9
00000230: c414 62b9 c3eb 76b9 8ff6 6db9 45c5 61b9
00000240: 59bd 44b9 a533 39b9 7c77 2db9 61cc 41b9
00000250: 02a2 33b9 7270 25b9 0aaf 42b9 5016 35b9
00000260: 211c 2ab9 b207 9bb9 2dbb 95b9 4045 8fb9
00000270: 38e1 9ab9 3c45 94b9 798e 8cb9 ec13 9ab9
00000280: 50ca 93b9 9fc8 8db9 aa72 76b8 1e35 72b8
00000290: dc68 73b8 a6c3 76b8 c482 72b8 e6b3 73b8
000002a0: c6a8 79b8 116a 75b8 209a 76b8 bcdf aeb6
000002b0: 9dad acb6 f0ab acb6 4cd5 aeb6 24a2 acb6
000002c0: cd9f acb6 08e4 afb6 2cb2 adb6 36af adb6
000002d0: 1f64 2338 80ef 2238 84f0 2238 9db7 2338
000002e0: 4542 2338 cb42 2338 80e5 2338 5870 2338
000002f0: d270 2338 b8d2 a9b8 1370 a9b8 55e7 a6b8
00000300: 4339 b1b8 6fa8 b2b8 5705 adb8 5fe5 b6b8
00000310: 4647 bcb8 4375 b1b8 d1d4 af36 01b2 c436
00000320: 11c3 ef36 36c3 c435 5d0d 9a35 def8 8336
00000330: a548 12b6 8962 98b6 a0b8 6b35 c48c c436
00000340: c088 db36 d7b9 0737 b475 1f36 81a5 2636
00000350: 472f b436 642c 3ab5 df85 18b6 0eff 4a36
00000360: ae90 94ba 7a8a 94ba 0390 94ba 7d8c 94ba
00000370: 4286 94ba c58b 94ba bd6e 94ba 8468 94ba
00000380: 4a6e 94ba 8181 e6b8 4271 e6b8 467d e6b8
00000390: b07a e6b8 6b6a e6b8 7876 e6b8 f578 e6b8
000003a0: b468 e6b8 0e75 e6b8 4edc b938 23d0 b938
000003b0: 1bc1 b938 78de b938 46d2 b938 26c3 b938
000003c0: 3b71 b938 0865 b938 d555 b938 c742 e8b9
000003d0: bc60 e8b9 374d e8b9 881c e8b9 bb28 e8b9
000003e0: 021d e8b9 b084 e7b9 3695 e7b9 fa82 e7b9
000003f0: d806 a6b9 a912 a6b9 5017 a6b9 bbaf a5b9
9.24281e-05 9.0997644e-05 9.1273825e-05 9.183094e-05 9.039942e-05 9.067647e-05 9.120995e-05 8.97799e-05
9.005426e-05 1.8917235e-05 1.8819264e-05 1.8842667e-05 1.8887946e-05 1.8789919e-05 1.8813347e-05 1.8832432e-05
1.8734523e-05 1.8757793e-05 2.814925e-05 2.830921e-05 2.827753e-05 2.8176473e-05 2.8336468e-05 2.8304728e-05
2.8267441e-05 2.8427256e-05 2.8395818e-05 6.3836946e-05 6.370275e-05 6.4100794e-05 6.4312655e-05 6.416809e-05
6.451176e-05 6.474261e-05 6.442554e-05 6.4678934e-05 -5.1229836e-05 -5.195225e-05 -5.1469364e-05 -5.125705e-05
-5.2001385e-05 -5.155899e-05 -5.0812156e-05 -5.1743027e-05 -5.1381256e-05 4.2350726e-05 4.174981e-05 4.220019e-05
4.252813e-05 4.1902964e-05 4.2289717e-05 4.301358e-05 4.2199572e-05 4.2472137e-05 0.00056163035 0.00056186895
0.0005616252 0.000561749 0.00056198344 0.00056173827 0.00058140536 0.0005816826 0.0005814329 4.7100315e-05
4.7208887e-05 4.719082e-05 4.7026653e-05 4.7134876e-05 4.711674e-05 4.8323356e-05 4.8434602e-05 4.8416237e-05
-3.700978e-05 -3.690557e-05 -3.6896126e-05 -3.721975e-05 -3.7114598e-05 -3.710506e-05 -3.876276e-05 -3.8661055e-05
-3.865068e-05 3.6175952e-05 3.4580735e-05 3.8003778e-05 3.4337154e-05 3.4002976e-05 3.6678743e-05 4.217745e-05
4.273401e-05 4.3230008e-05 0.00019853863 0.00019754289 0.00020116278 0.00019802505 0.00019901303 0.00020165658
0.0002142909 0.0002172454 0.000217114 0.00017991345 0.0001782007 0.00018161863 0.00017849109 0.00017865554
0.0001816808 0.00019018058 0.00019188329 0.00019280921 -0.0005351196 -0.00052531576 -0.0005281805 -0.0005237387
-0.00051392074 -0.00051679055 -0.00053594203 -0.00052612723 -0.000528987 -5.5774624e-05 -5.5165132e-05 -5.5347333e-05
-5.497211e-05 -5.4361764e-05 -5.4544453e-05 -5.581511e-05 -5.520504e-05 -5.538715e-05 1.0580643e-05 9.501273e-06
9.859722e-06 9.926425e-06 8.845481e-06 9.2037835e-06 1.08836e-05 9.803056e-06 1.0159414e-05 -0.00023637609
-0.00022976815 -0.00021734889 -0.00023936997 -0.00023028697 -0.00021560775 -0.00023548216 -0.00022693932 -0.00021531161
-0.00018762554 -0.00017662214 -0.00016543077 -0.00018482051 -0.00017131123 -0.00015777515 -0.00018566489 -0.00017269817
-0.00016222942 -0.00029569637 -0.0002855895 -0.0002732668 -0.0002954097 -0.00028280343 -0.0002680903 -0.00029388012
-0.0002818876 -0.0002704309 -5.875776e-05 -5.7746765e-05 -5.8033373e-05 -5.8833182e-05 -5.781908e-05 -5.810326e-05
-5.952341e-05 -5.8511334e-05 -5.879451e-05 -5.21165e-06 -5.1462107e-06 -5.1460156e-06 -5.210435e-06 -5.144875e-06
-5.1446027e-06 -5.2419527e-06 -5.1765437e-06 -5.176199e-06 3.8955473e-05 3.884686e-05 3.8847807e-05 3.903323e-05
3.8923947e-05 3.8924434e-05 3.9075967e-05 3.8966857e-05 3.89673e-05 -8.0977974e-05 -8.0794234e-05 -7.958586e-05
-8.4506835e-05 -8.5190746e-05 -8.2502775e-05 -8.72116e-05 -8.977814e-05 -8.4618594e-05 5.2401815e-06 5.8619776e-06
7.1454638e-06 1.4659952e-06 1.1477783e-06 3.933076e-06 -2.179798e-06 -4.541424e-06 8.7812987e-07 5.8576425e-06
6.5426284e-06 8.089896e-06 2.3761359e-06 2.4832264e-06 5.369922e-06 -6.9354996e-07 -2.2727688e-06 3.0248807e-06
-0.0011334622 -0.0011332773 -0.0011334423 -0.0011333373 -0.0011331516 -0.0011333158 -0.0011324506 -0.0011322652
-0.0011324373 -0.000109913766 -0.000109883506 -0.000109905886 -0.00010990107 -0.000109870765 -0.00010989321 -0.00010989785
-0.00010986757 -0.00010989058 8.8625224e-05 8.860256e-05 8.857456e-05 8.8629255e-05 8.860654e-05 8.857837e-05
8.842578e-05 8.840306e-05 8.837475e-05 -0.0004430024 -0.0004432256 -0.00044308018 -0.00044271746 -0.00044280835
-0.000442721 -0.00044158613 -0.00044170924 -0.0004415734 -0.00031667086 -0.0003167589 -0.00031679356 -0.00031602182
